…
creating dataset ...
data shape:
(99872, 128, 19, 41) (99872, 2, 41) (99872, 17, 41)
training data:
  - x0: (79898, 128, 19, 41)
  - x1: (79898, 2, 41)
  - y: (79898, 17, 41)
test data:
  - x0: (19974, 128, 19, 41)
  - x1: (19974, 2, 41)
  - y: (19974, 17, 41)
building model ...
____________________________________________________________________________________________________
Layer (type)                     Output Shape          Param #     Connected to                     
====================================================================================================
window_input (InputLayer)        (None, 128, 19, 41)   0                                            
____________________________________________________________________________________________________
time_distributed_1 (TimeDistribu (None, 128, 256)      174080                                       
____________________________________________________________________________________________________
question_input (InputLayer)      (None, 2, 41)         0                                            
____________________________________________________________________________________________________
global_max_pooling1d_1 (GlobalMa (None, 256)           0                                            
____________________________________________________________________________________________________
bidirectional_2 (Bidirectional)  (None, 256)           174080                                       
____________________________________________________________________________________________________
concatenate_1 (Concatenate)      (None, 512)           0                                            
____________________________________________________________________________________________________
repeat_vector_1 (RepeatVector)   (None, 17, 512)       0                                            
____________________________________________________________________________________________________
lstm_3 (LSTM)                    (None, 17, 128)       328192                                       
____________________________________________________________________________________________________
time_distributed_2 (TimeDistribu (None, 17, 128)       16512                                        
____________________________________________________________________________________________________
dropout_1 (Dropout)              (None, 17, 128)       0                                            
____________________________________________________________________________________________________
time_distributed_3 (TimeDistribu (None, 17, 41)        5289                                         
====================================================================================================
Total params: 698,153
Trainable params: 698,153
Non-trainable params: 0
____________________________________________________________________________________________________
Train on 71908 samples, validate on 7990 samples
Test on 19974 samples
Epoch 1/200

…
