loading data ...
routes: 19996
vectorization ...
creating dataset ...
data shape:
(19868, 128, 9, 12) (19868, 2, 12) (19868, 7, 12)
training data:
  - x0: (17882, 128, 9, 12)
  - x1: (17882, 2, 12)
  - y: (17882, 7, 12)
validation data:
  - x0: (1986, 128, 9, 12)
  - x1: (1986, 2, 12)
  - y: (1986, 7, 12)
building model ...
_________________________________________________________________
Layer (type)                 Output Shape              Param #   
=================================================================
window_input (InputLayer)    (None, 128, 9, 12)        0         
_________________________________________________________________
time_distributed_1 (TimeDist (None, 128, 256)          144384    
_________________________________________________________________
att_layer_1 (AttLayer)       (None, 256)               513       
_________________________________________________________________
repeat_vector_1 (RepeatVecto (None, 7, 256)            0         
_________________________________________________________________
lstm_3 (LSTM)                (None, 7, 128)            197120    
_________________________________________________________________
time_distributed_2 (TimeDist (None, 7, 128)            16512     
_________________________________________________________________
dropout_1 (Dropout)          (None, 7, 128)            0         
_________________________________________________________________
time_distributed_3 (TimeDist (None, 7, 12)             1548      
=================================================================
Total params: 360,077
Trainable params: 360,077
Non-trainable params: 0
_________________________________________________________________
Train on 17882 samples, validate on 1986 samples
Epoch 1/200
  128/17882 [..............................] - ETA: 95s - loss: 2.4539 - acc: 0.5536
…
